LLMs-from-scratch/Pytorch/model.pth (torch, 5492 bytes, 6 tensors)

layers.0.weight f4 [30, 2]
0	0xbe9971a2	-0.29969507
1	0x3d8b0942	0.06788875
2	0xbeb11e59	-0.34593466
3	0x3e7c135a	0.24616757
4	0xbf19bf77	-0.6005778
5	0x3f02d4c1	0.51105887
6	0xbf039278	-0.5139537
7	0xbf0feaff	-0.5621795
8	0xbee95e33	-0.4557968
9	0x3eb62105	0.35572067
10	0xbe88afe8	-0.26696706
11	0x3e92e64b	0.28691325
12	0xbf19a2ed	-0.6001423
13	0xbedba84d	-0.4290184
14	0xbe84ee93	-0.25963268
15	0xbe0e4ba4	-0.13896042
16	0xbf06c35b	-0.5264184
17	0x3ed2e5cc	0.41190946
18	0xbe31eb11	-0.17374827
19	0x3e825da7	0.25462076
20	0x3f00b390	0.5027399
21	0x3df78f6e	0.12087904
22	0x3e42fe01	0.19042207
23	0x3f31b87a	0.69422114
24	0xbea49e07	-0.32151815
25	0x3e6fd66c	0.23421639
26	0xbea69ad8	-0.3254001
27	0x3f0c29c4	0.5475123
28	0x3f10927f	0.56473535
29	0xbf26e512	-0.65193284
30	0x3f1a82d7	0.60355896
31	0x3eacef66	0.33776397
32	0x3e9e7440	0.30948067
33	0x3e92558b	0.2858089
34	0x3f167b31	0.58781725
35	0xbdbf36b8	-0.09336609
36	0xbf191678	-0.5979991
37	0xbe4fc5f0	-0.20290351
38	0xbf007be7	-0.5018906
39	0x3d7dda97	0.06197604
40	0xbe0730d0	-0.13202214
41	0xbec2312d	-0.37928143
42	0xbd8d214d	-0.06891117
43	0x3f301e0f	0.68795866
44	0xbd3804dd	-0.044926513
45	0xbca56908	-0.020191684
46	0xbe02398a	-0.12717262
47	0x3e360e2b	0.17778842
48	0x3f1dce0a	0.61642516
49	0x3ef8d1b1	0.48597482
50	0x3e816cdb	0.25278363
51	0x3e13d44f	0.14436458
52	0x3e16112e	0.14654991
53	0x3eb4709b	0.3524216
54	0xbdbb22b8	-0.091374815
55	0xbf283db0	-0.6571913
56	0xbedbe7fb	-0.42950425
57	0x3f12a6fa	0.57286036
58	0x3d2d1f50	0.04226619
59	0xbf12a393	-0.57280844

layers.0.bias f4 [30]
0	0x3e02c09a	0.12768784
1	0x3f13aabf	0.5768241
2	0xbf2bbc53	-0.67084235
3	0xbef3bd1a	-0.4760521
4	0xbe89931b	-0.26870045
5	0x3d15721b	0.036485773
6	0xbe28e048	-0.16491807
7	0xbd9f23b0	-0.07770479
8	0xbf353b09	-0.70793205
9	0x3eaeb0dd	0.3411931
10	0x3f1ddf8f	0.6166925
11	0x3edf790a	0.43647033
12	0xbefe7704	-0.49700177
13	0xbf0dffc2	-0.5546838
14	0x3e96565e	0.29362768
15	0x3c8255ba	0.015910018
16	0x3e936d1c	0.2879418
17	0xbf30e220	-0.6909504
18	0xbd2cafd0	-0.042159855
19	0x3f01144b	0.5042159
20	0x3ea7f432	0.32803494
21	0x3d049a2c	0.032373592
22	0x3dfcf8f9	0.12352175
23	0xbd2ee47e	-0.042698376
24	0xbebd149e	-0.36929792
25	0xbe8aa51e	-0.270791
26	0xbecdb8ec	-0.40180147
27	0x3f165b39	0.58732945
28	0x3ec17fe0	0.37792873
29	0x3e7d39e8	0.2472912

layers.2.weight f4 [20, 30]
0	0xbe34c710	-0.17654061
1	0xbc29a630	-0.010354564
2	0xbd6881a6	-0.056764267
3	0x3e0155cc	0.12630385
4	0xbe23d7f0	-0.16000342
5	0xbd55750a	-0.05211357
6	0x3e368a5e	0.1782622
7	0x3dfb83e8	0.122810185
8	0x3d5aebe2	0.05344761
9	0xbe117310	-0.14204049
10	0x3d9f68c7	0.077836566
11	0xbeb4e4bc	-0.3533076
12	0xbc8aa816	-0.016925853
13	0xbe504052	-0.20337036
14	0xbd2e6764	-0.04257907
15	0xbdc73798	-0.097274005
16	0xbd915bb5	-0.0709757
17	0x3e2a27f2	0.166168
18	0x3db91e28	0.09038955
19	0xbdc2e147	-0.095156245
20	0x3e04b5ba	0.12959948
21	0xbe8ea820	-0.27862644
22	0x3d913181	0.0708952
23	0xbd428258	-0.047487587
24	0xbd884a6c	-0.0665482
25	0x3cac64e3	0.0210442
26	0xbe236d62	-0.15959695
27	0x3cacd540	0.02109778
28	0xbe2a6967	-0.1664177
29	0x3e1fd5a8	0.15608847
30	0xbd6c709e	-0.057724588
31	0x3d7f7903	0.062371265
32	0x3e38087a	0.17971984
33	0xbda0658a	-0.07831867
34	0x3e2f8fc7	0.1714469
35	0xbdbde229	-0.09271652
36	0x3da4d188	0.080477774
37	0x3d927ae4	0.07152346
38	0x3d4785a4	0.048711434
39	0x3e1180ab	0.14209239
40	0xbd996503	-0.074899696
41	0x3d3223e0	0.043491244
42	0x391ccf30	0.00014954503
43	0xbe0f0a68	-0.13968813
44	0xbd359500	-0.04433155
45	0xbdfb90a1	-0.12283445
46	0x3da1cdde	0.07900594
47	0x3c8673e0	0.016412675
48	0x3c928548	0.01788582
49	0xbd6bc526	-0.057561062
50	0x3a662400	0.0008779168
51	0xbd79457b	-0.060857277
52	0x3d54c8fa	0.05194948
53	0x3e34d635	0.17659838
54	0x3cdda4a4	0.027056046
55	0xbda59cc9	-0.08086545
56	0xbde5440b	-0.11194619
57	0x3c64a6d0	0.013955787
58	0xbe0fe691	-0.14052798
59	0xbe0c8686	-0.13723192
60	0xbdfcf97f	-0.12352275
61	0xbda6c0f4	-0.08142272
62	0xba92e120	-0.0011206008
63	0x3e00bd74	0.1257227
64	0x3d734ca1	0.05939925
65	0x3e034b0a	0.12821594
66	0xbdeac740	-0.11463785
67	0x3c7c6e10	0.0154071
68	0xbe326709	-0.17422117
69	0x3dbb3c51	0.09142364
70	0x3cf749d0	0.030186564
71	0x3e192ee5	0.14959295
72	0xbe094403	-0.1340485
73	0x3e08b4d5	0.13350232
74	0x3e1dd54a	0.15413395
75	0x3e108463	0.14113002
76	0x3c78d91e	0.0151884835
77	0x3e29fec6	0.16601095
78	0x3df9b624	0.12192944
79	0x3dfe2806	0.124099776
80	0xbc425130	-0.011860177
81	0xbe27cb7e	-0.1638622
82	0xbbac05b6	-0.0052497042
83	0x3cf85c0e	0.030317333
84	0xbe03eb80	-0.12882805
85	0xbdd693cf	-0.10477411
86	0xbe35d61c	-0.17757457
87	0xbd8312e9	-0.06400091
88	0x3e04e886	0.12979326
89	0x3cffbff8	0.031219468
90	0xbc36b560	-0.011151642
91	0x3bf03fc0	0.0073318183
92	0x3de926b4	0.11384335
93	0xbe251810	-0.1612246
94	0xbe1040d7	-0.14087234
95	0xbd78a11a	-0.060700513
96	0xbdd7316f	-0.105074756
97	0x3dc0dbb4	0.09416905
98	0x3e04199a	0.12900391
99	0xbe3563b6	-0.17713818
100	0xbe1eaa6d	-0.154947
101	0xbe360fa1	-0.177794
102	0x3d8d0f58	0.06887692
103	0x3e1678ec	0.14694566
104	0xbe10f457	-0.14155708
105	0xbdad1add	-0.084523894
106	0x3d6df914	0.058098868
107	0xbdf428b4	-0.11921826
108	0x3e1ed0b6	0.15509304
109	0x3d2e5d10	0.04256922
110	0xbd502e90	-0.050825655
111	0x3c424950	0.011858299
112	0x3d6925e0	0.056920886
113	0xbd84385d	-0.06456063
114	0xbe10dd2a	-0.14146867
115	0x3aa0da00	0.0012272
116	0x3b59f200	0.0033255816
117	0x3b7147c0	0.0036816448
118	0xbcda42a0	-0.026643097
119	0x3df01434	0.117226034
120	0xbd50afe8	-0.050949007
121	0xbc90c490	-0.017671853
122	0x3d99bf7c	0.07507226
123	0xbdeb5aa8	-0.11491901
124	0x3d483c7c	0.048885807
125	0xbd255b08	-0.040370017
126	0x3db35b0c	0.087576
127	0xbdcad57a	-0.09903999
128	0x3bdd1b40	0.006747633
129	0x3c925178	0.017861113
130	0xbe166c93	-0.14689855
131	0xbe07f18e	-0.1327574
132	0x3d8f6674	0.07001963
133	0xbd59a8b4	-0.053139403
134	0x3dde10a4	0.10843018
135	0xbe38afd2	-0.1803582
136	0xbdb8d5db	-0.09025165
137	0xbe19fd0f	-0.1503794
138	0x3d955dfc	0.07293317
139	0xbbad7180	-0.0052930713
140	0xbd0b7c34	-0.034053996
141	0xbcf8d538	-0.030375108
142	0xbe122248	-0.1427089
143	0x3d541440	0.051777124
144	0x3b951f00	0.0045508146
145	0xbe01054e	-0.1259968
146	0x3d8cb2d0	0.06870043
147	0xbb707d00	-0.00366956
148	0xbe34d063	-0.17657618
149	0x3dc92280	0.098210335
150	0x3dfa7721	0.12229753
151	0x3d8a7479	0.06760497
152	0xbd495b10	-0.04915911
153	0x3bf03380	0.007330358
154	0x3e49fa10	0.19724298
155	0x3e69da9e	0.22837302
156	0xbe0d1d54	-0.13780719
157	0xbda8e269	-0.08246309
158	0x3e51c8cd	0.20486756
159	0x3e23011a	0.15918389
160	0x3e1e0a52	0.15433624
161	0x3d50cce0	0.050976634
162	0x3e37aa51	0.17936064
163	0xbda8751e	-0.08225463
164	0xbc101660	-0.008794397
165	0x3d1b16ff	0.037863728
166	0x3db3b740	0.087751865
167	0xbe0d12f0	-0.13776755
168	0x3e2b869c	0.16750568
169	0x3e78ec34	0.24308854
170	0xbe011cf9	-0.12608708
171	0x3e06b9ac	0.13156766
172	0xbda71fbc	-0.0816035
173	0x3e485fbd	0.19567771
174	0x3e00477e	0.12527272
175	0x3ddca741	0.10774089
176	0x3d93e042	0.07220508
177	0xbc94e6e0	-0.018176496
178	0x3e834da6	0.2564518
179	0x3b4bbf00	0.0031089187
180	0xbd885f12	-0.06658758
181	0x3dc10dc4	0.09426454
182	0x3d6aabfc	0.057292923
183	0xbd41c5a8	-0.04730764
184	0xbd4cf218	-0.050035566
185	0xbe255522	-0.16145757
186	0xbd4cfe08	-0.05004695
187	0xbd977a1e	-0.07396339
188	0xbdcbccde	-0.09951185
189	0xbe28dcb0	-0.16490436
190	0x3e12702a	0.143006
191	0xbe2714ba	-0.163165
192	0x3e39980a	0.18124405
193	0xbdc42015	-0.09576432
194	0xbc65eea0	-0.014033943
195	0x3e188202	0.14893344
196	0x3d76b730	0.060233295
197	0xbd5580d4	-0.052124813
198	0xbe16829c	-0.14698261
199	0xbd98e03a	-0.07464643
200	0x3e168e88	0.14702809
201	0xbd8d315a	-0.06894179
202	0x3e1bd020	0.15216112
203	0xbd00c9a4	-0.0314423
204	0xbcbebec8	-0.023284331
205	0x3d953b9c	0.0728676
206	0xbcdbc310	-0.026826411
207	0xbac98880	-0.0015375763
208	0x3e017c02	0.12644961
209	0x3d79ebe8	0.061015993
210	0x3c681dd2	0.014167266
211	0x3e220eee	0.15826008
212	0x3e675306	0.22590265
213	0x3d3c7b54	0.046016052
214	0xbaec6180	-0.0018034428
215	0x3de7a5b1	0.113109
216	0xbc82da78	-0.015973315
217	0xbe122aaa	-0.14274088
218	0xbc82a25a	-0.015946556
219	0x3e135592	0.14388111
220	0x3d2bbfd2	0.04193098
221	0x3e435458	0.19075143
222	0xbdb38a67	-0.087666325
223	0x3e6d28a8	0.2316004
224	0xbd9c0ab8	-0.07619232
225	0x3d8c70d8	0.06857461
226	0xbd2203d4	-0.039554432
227	0xbdb4597c	-0.0880613
228	0x3da776f8	0.08176988
229	0x3b9090b0	0.0044117793
230	0xbded25e6	-0.11579494
231	0x3d0b13ae	0.033954315
232	0x3e164411	0.14674403
233	0x3e02e65b	0.12783186
234	0x3e06b212	0.13153866
235	0xbe1f5c7a	-0.15562621
236	0x3dc7ca49	0.0975538
237	0x3d3ab3c0	0.04558158
238	0x3c327a88	0.010893472
239	0x3bbd1d40	0.005771309
240	0x3c8f0b20	0.01746136
241	0xbe35bfc4	-0.17748934
242	0xbe0bc58d	-0.13649578
243	0x3e187f86	0.14892396
244	0xbd78bfef	-0.060729917
245	0xbd49dd99	-0.049283598
246	0xbdeca5b8	-0.11555046
247	0xbddf95ce	-0.10917245
248	0x3df4f732	0.11961211
249	0x3c634cd4	0.013873298
250	0xbd79349a	-0.06084118
251	0x3accf3c0	0.0015636608
252	0xbdd4d1c6	-0.103915736
253	0xbe58c911	-0.21170451
254	0xbe399bc7	-0.1812583
255	0x3d43f6ea	0.047842897

layers.2.bias f4 [20]
0	0x393f8400	0.00018264353
1	0xbda4fc3f	-0.080559246
2	0xbe2130c2	-0.15741256
3	0xbe04497b	-0.12918656
4	0x3db1a99c	0.086749285
5	0x3d5db5b0	0.05412835
6	0x3e079c60	0.13243246
7	0x3d24f561	0.040273074
8	0xbd40057a	-0.046880223
9	0x3e13cdf0	0.14434028
10	0x3d802411	0.06256879
11	0xbe045697	-0.12923656
12	0x3d0a2a14	0.033731535
13	0xbbaace20	-0.0052125603
14	0xbdf5f626	-0.1200984
15	0x3e123644	0.14278513
16	0x3daca33c	0.08429572
17	0xbd9db845	-0.07701162
18	0xbe1ee65a	-0.1551756
19	0x3d9e4780	0.07728481

layers.4.weight f4 [2, 20]
0	0xbe4301dd	-0.1904368
1	0x3d49c4bf	0.049259897
2	0x3d12926c	0.03578417
3	0x3d190ae0	0.037363887
4	0x3d368598	0.044561
5	0x3e8f7a68	0.28023076
6	0xbd88cbd8	-0.06679505
7	0x3d39b6d6	0.04534038
8	0xbdd35088	-0.103180945
9	0x3e5930c1	0.21210004
10	0x3cb3a2d0	0.021928221
11	0x3e477dda	0.19481602
12	0x3e5cb470	0.21553206
13	0xbd22f2d4	-0.03978236
14	0xbdc242fe	-0.09485434
15	0x3e996c6a	0.29965526
16	0xbe133b5d	-0.14378114
17	0xbdd234ab	-0.10263952
18	0xbcf74a48	-0.030186787
19	0xbe1447f9	-0.1448058
20	0x3e30d6b3	0.17269401
21	0x3d66eed9	0.056380127
22	0xbe894ac8	-0.26814866
23	0xbe61ae66	-0.22039184
24	0x3dc7c6c0	0.097547054
25	0xbe9e752b	-0.30948767
26	0xbe62a012	-0.22131374
27	0xbe8888ec	-0.26666963
28	0x3d60ee1b	0.054914575
29	0xbe1732ea	-0.14765516
30	0xbbc17cc0	-0.005904764
31	0xbe5bc1ae	-0.21460602
32	0x3d94e8cc	0.07270965
33	0xbe4316cd	-0.19051667
34	0x3cf812e0	0.030282438
35	0xbe9b536f	-0.30337092
36	0xbe22587b	-0.15854065
37	0xbbced1a0	-0.0063116103
38	0xbe94bd31	-0.29050592
39	0x3e3e9316	0.18610796

layers.4.bias f4 [2]
0	0x3e33815c	0.17529815
1	0xbe291cbe	-0.1651487
